app/pages/utils/models/emission_predictor.pth (torch, 12854 bytes, 6 tensors)

layer1.weight f4 [64, 5]
00000000: ab6c 19bf c381 923e 6663 83bd 0e48 103f
00000010: bf1b 733b 4f9b aa3f cb58 5cbf 1dc5 12bf
00000020: 32cb 103d 8a9c 913d b7d5 7cbf 36fc 66be
00000030: 399b 863e 8689 b83d fc0d 983d 0ec2 2abf
00000040: 8ec7 c33b 502f 91bd e75b 25be 6783 453e
00000050: 4f59 f43e c7ad 7c3e 91ef d9bd 293d 163e
00000060: cb2d 0c3f a7c6 423f 56f4 edbe 6f66 d73e
00000070: 56cb 70be 8454 c73d 1fac 06be ef5e 383f
00000080: 2f7d d43e e86e 1dbf d01b cb3f 295c 423e
00000090: cf6c af3d 23b0 623e 8c60 273f fcea ec3d
000000a0: 8a28 133f 8d14 8a3e 6cff 8c3e 74e2 a1bb
000000b0: ec5e 09bf 2083 f73e 3afa 68bc 908c 61bf
000000c0: c428 ccbe 6b19 ac3e e395 99be 30d3 d539
000000d0: 6b18 4a3f 0820 b23e cb5b b83e 069d 51bf
000000e0: 4ab2 853d c03b 48be d60e d6bc 3ea1 3f3e
000000f0: 588e 7a3f 45e9 023f 7612 18be c0e2 edbd
00000100: 72b7 f7be e7dd 16be c947 103d 08da 373f
00000110: f6c3 b7be b41a efbe 7a6a 95be 423c 0f3f
00000120: 7292 f8bc 1db5 abbd fe17 253e 0f99 543f
00000130: fc64 463e 597e 073e 813d a63e e07e 923f
00000140: 2b46 fb3e 719e bb3e 1237 50be c0b5 37be
00000150: e40a 353e ae93 2f3f 7db8 dc3d b636 2d3f
00000160: 0db0 243f 1fd7 3ebd b1b9 1a3e 738f 3f3d
00000170: 3a69 afbc f998 623e 324d d63e 5e7e e4bd
00000180: e387 dabe 3e85 33bf f06e 10bf d19b 613c
00000190: 1d31 223e 71e5 2f3e db79 113f f288 ffbc
000001a0: 29e4 3bbf 00b4 c3bd 40f5 f63e 93ab 8e3e
000001b0: e604 c3bc e0b5 013e f28c 62bf 5022 f9be
000001c0: 2241 51bf c089 fe3d 6d74 68be 5517 9a3d
000001d0: af91 74be c4af 053f e709 103f 4f8c f93d
000001e0: 2523 71bf c47b 923e 0b66 1cbf 047a 2fbd
000001f0: a1d9 b7bb 8299 48be 08dd 25be 4d13 babc
00000200: a536 5dbe 6335 a03e 1fe6 87be 456b 9dbf
00000210: 5cba 03bf 7731 66bf 1c12 6fbe d773 4c3f
00000220: ff32 053f 8979 edbe a1d4 14bd 519e aebd
00000230: 5550 34bf b1a7 1c39 c2a1 86bd b398 703d
00000240: 712e 3f3d d991 603f d698 c33e cbe8 abbe
00000250: db48 b3bc 760a 91bd 2c61 16bf e717 593e
00000260: eae3 c1be 437c 55bd 9684 173e f917 91bf
00000270: 114f ae3e faaf 74be f066 ddbb 53c5 9cbd
00000280: ffe2 843f fb07 1dbd d52f 5fbf 65f2 41be
00000290: b534 783e ce20 42bf a048 a03d 46ce 80bd
000002a0: b28c c73b 4d16 e93e d19c 483f ccb0 533e
000002b0: 534e 383e 6bea 23bd 99fd f6be 3014 acbf
000002c0: 5c34 7cbf f659 9ebe f2e2 943a e860 703e
000002d0: e7c1 0bc0 b0a9 52bd aec0 0f3e 75a2 2fbe
000002e0: 2304 143e 01e8 a2bb e33f 08bf 3861 4b3f
000002f0: 9bc5 403f ad18 7abb 63c4 a23e 81e2 48bc
00000300: df34 f03d 3f24 9b3e feba de3e 471b 0dbf
00000310: fc5c 693e 0493 d83d 6ae3 14bf f423 d53e
00000320: 8ef6 1bbf cc2f dcbe 814a 5e3f 0c70 fe3e
00000330: babf 053e 3556 463f 681b 0d3f c96f 733e
00000340: b563 cabc 4604 41bf f98c 61bf 2e43 a5bb
00000350: 08e2 52be 4904 b8bd 4a9d f03d 9022 4f3f
00000360: a479 bf3e c99c 87be 1499 5abd 6ba9 7cbd
00000370: 4ec3 173f 4c7f 89be dd9b 64be 8107 d8bd
00000380: 3091 113d 3df4 80bf 860c 913e 2d0f 29bf
00000390: a554 17bd eed6 12bc f330 073f dd57 89be
000003a0: d6a7 3bbe 2dc5 0cbf 9a68 193f c1e0 7e3f
000003b0: 9299 b7bd 63f3 de3c 3c6a 4abd 1563 cebe
000003c0: f16f 333d d16d 0c3f 873e 9f3e 9a8b 83bd
000003d0: 2880 3c3e f0f8 3abd b31b 81be 879f 003f
000003e0: 7489 5fbd 6185 ae3e cf7c 113e 019c 86be
000003f0: 932f 013f 7d73 78bf 76c9 6a3e 969a 973f
-0.5993144 0.28614625 -0.06415443 0.56359947 0.0037095395 1.3328646 -0.8607299 -0.5733202
0.035350032 0.071099356 -0.987636 -0.22557148 0.262903 0.090106055 0.07424542 -0.66702354
0.0059747165 -0.07089102 -0.16148339 0.19288407 0.47724387 0.24675666 -0.10641397 0.14671768
0.54757375 0.7608437 -0.46475476 0.42070338 -0.23515067 0.09732917 -0.13151596 0.7201986
0.41501758 -0.61497355 1.5867863 0.18980469 0.085656755 0.22137503 0.65381694 0.11568257
0.5748373 0.26968804 0.2753862 -0.0049403254 -0.53660464 0.48342228 -0.014219815 -0.88105106
-0.39874852 0.33613142 -0.29997167 0.00040783873 0.7894351 0.34790063 0.36007532 -0.81880224
0.065281466 -0.19554043 -0.026130121 0.18713853 0.9787345 0.5113719 -0.14850792 -0.11615515
-0.48382145 -0.14733087 0.03522471 0.71817064 -0.35891694 -0.4670006 -0.29182798 0.5595132
-0.030343268 -0.08384154 0.16122434 0.8304605 0.1937446 0.13231792 0.324688 1.1444969
0.4907697 0.3664432 -0.20333508 -0.17940426 0.17679936 0.68584716 0.10777376 0.6766161
0.6433113 -0.046591874 0.15109898 0.046767663 -0.02141248 0.22128667 0.4185577 -0.11156915
-0.42681798 -0.70125186 -0.5641928 0.01377006 0.15839048 0.17177369 0.5682656 -0.03119323
-0.7339502 -0.09555817 0.48233986 0.27865276 -0.023806047 0.12667036 -0.88496315 -0.4865899
-0.8174001 0.124286175 -0.22700663 0.075239815 -0.23883699 0.5222132 0.5626511 0.12184965
-0.9419425 0.2861005 -0.61093205 -0.042840973 -0.00561066 -0.19589809 -0.16197598 -0.022714281
-0.21602876 0.3129073 -0.26542756 -1.2298361 -0.51456237 -0.8991923 -0.23346752 0.7986426
0.5203094 -0.46381786 -0.03633559 -0.0852629 -0.70435077 0.00014939789 -0.065738216 0.058739375
0.04667515 0.87722546 0.38202542 -0.33576044 -0.021885326 -0.070820734 -0.5874202 0.21200524
-0.37869197 -0.05212046 0.14796671 -1.1335441 0.34044698 -0.23895255 -0.006756656 -0.07654824
1.0381774 -0.03833769 -0.8718236 -0.18940122 0.24238856 -0.75831306 0.07826352 -0.062893435
0.0060897702 0.45524827 0.7836428 0.20672911 0.17998628 -0.04001848 -0.48240355 -1.3443661
-0.98517394 -0.3092801 0.0011359139 0.23474467 -2.1837099 -0.051431358 0.14038345 -0.17151816
0.14454703 -0.0049715047 -0.53222483 0.7944522 0.7530152 -0.003816168 0.31790456 -0.012261034
0.11728834 0.3030109 0.4350204 -0.55119747 0.22789377 0.10574916 -0.58159506 0.41628993
-0.6092309 -0.43005216 0.86832434 0.4969486 0.13061419 0.7747529 0.55119944 0.23773111
-0.024705747 -0.75397146 -0.8810573 -0.005043409 -0.20594037 -0.08985192 0.117487505 0.80912113
0.37397492 -0.26486805 -0.053368643 -0.061685007 0.59282386 -0.26854932 -0.22325082 -0.10548306
0.035538852 -1.0074536 0.28329867 -0.6603878 -0.036945958 -0.008962376 0.52809066 -0.26824847
-0.18325743 -0.54988366 0.59925234 0.995617 -0.08964838 0.027215665 -0.04941772 -0.4030997
0.043807928 0.54855067 0.31102392 -0.06423111 0.18408263 -0.04564756 -0.25216445 0.5024342
-0.054574445 0.34086135 0.14207767 -0.26290897 0.5046322 -0.9705122 0.22928414 1.1844051

layer1.bias f4 [64]
00000000: db37 333f 8b8e 3e3f 90ba a83f 806f 8d3f
00000010: a81f ae3f 1222 833f 4a0d f23d 5ec0 8b3f
00000020: 0649 3f3f c09f 643f 0b98 433f d9e7 8e3f
00000030: 24a4 6f3f 6239 223f 21d7 aa3f 6e9c b93e
00000040: 1209 9f3f 7f6f 613f fa3b b43f 99fd 623f
00000050: 211f 093f 08b0 a53f aa50 693f 3eb4 933f
00000060: c0e5 793f 6775 7f3f c4df 423f b61d 153f
00000070: eb55 803f 26a4 303f 926e 4e3f cfbe 5f3f
00000080: aa3e b23e 777e 343f b3a1 5c3f c28b d2bc
00000090: 1df7 6ebe 644a 733f 65ea bc3f 4b0c 953e
000000a0: 6e7a 543e 33fa 7c3f 0a23 983f e7b2 2b3f
000000b0: f4f6 a33f 261c 863f 94fc 413f 8966 4d3f
000000c0: b461 b73f ebbe 193f d58a 933f 1758 d83b
000000d0: 8fbf 803f c333 3b3f a9d7 8e3f f695 303f
000000e0: 882d 823f 5723 5e3f 6183 443f be16 9e3e
000000f0: 1f2e 9c3f 59b4 533f 15ce 9e3f 9775 543f
0.70007104 0.74436253 1.3181934 1.1049652 1.3603411 1.0244772 0.11818941 1.0918081
0.747208 0.8930626 0.76403874 1.1164504 0.93609834 0.6336881 1.3346902 0.3625216
1.2424643 0.88060755 1.4080803 0.8866821 0.53563124 1.2944345 0.9113871 1.153938
0.97616196 0.99788517 0.7612269 0.5824846 1.002622 0.6900047 0.80637467 0.87400526
0.34813434 0.7050547 0.86184233 -0.025701407 -0.23336454 0.95035386 1.4759032 0.2911094
0.20749828 0.98819274 1.1885693 0.6706986 1.2809739 1.047734 0.7577603 0.8023458
1.4326692 0.6005694 1.1526743 0.006602298 1.0058459 0.7312586 1.1159564 0.6897882
1.0170145 0.86772674 0.7676297 0.30876726 1.2201575 0.82697064 1.2406641 0.8299193

layer2.weight f4 [32, 64]
00000000: 0b76 a6be 2627 913d 79da 413f 1345 1b3f
00000010: 405b ec3e 3cec f33e 611b 06bf 785e 173f
00000020: fc1a ae3e a3dc b23e 3bac 8d3e 9b49 4c3f
00000030: 0787 f93e 9cdb 733e 8bfa d53e 64c0 aebe
00000040: c304 063f 22b3 133f 797e 023f f0c9 be3e
00000050: 65a9 573e 8af6 1f3f 0b35 153f 4db7 f93e
00000060: 032f 243f 258b 303f 3bff 4b3e 99f9 cc3e
00000070: 4457 1a3f 3715 403f 765b 083f 7604 3e3f
00000080: be3f ef3e 18af 853e 8d3c 023f 0edf 9cbe
00000090: f595 89bf 1fd1 393f e430 053f 744a d13e
000000a0: 2a5e 083f 9d3a 193f 489a 163f edfc 883e
000000b0: 81a4 9f3e a161 323f 6718 1e3f daa7 043f
000000c0: f962 b53e 082d a93e 3bc5 453f 3989 d83e
000000d0: 29ec 94be 34ba 3e3e 1e4c 683d d145 c33e
000000e0: b35d 2a3f 47bf 0b3f d5c2 e93d 7944 713e
000000f0: 3b50 073f 58fc fa3d fe0f 033f 92f8 ca3e
00000100: de18 23be dca9 0b3e 4d9d 2f3f 3a22 fa3e
00000110: ffde 0d3f bdc5 0f3f 7f05 d0be 48f2 1f3f
00000120: c27d f03d 2e86 a73e ba71 d33e 83b9 323f
00000130: 834b 293f ec2a 563e 7746 143f 810f b3be
00000140: f6ad b43e fa5a 143f eda3 133f 2efb a03e
00000150: 94aa 4c3e 67b6 d43e 153c 053f 806d f03e
00000160: a68b 113f 5745 1d3f 4dc2 a13d e84e 0d3f
00000170: 18dd 1b3f baf2 5d3f 7ba2 183f b2b2 433f
00000180: d631 e93e 028d 803e 2d18 f33e e9cf 98be
00000190: 8fab 98bf d59e 593f 685f 233f 14ba 8a3e
000001a0: 097c 023f 8e7b bb3e 677e 303f f1d8 3e3e
000001b0: 9bca bc3e 8aa0 193f e024 313f 3cb9 e93e
000001c0: a114 b33e d355 c83e d76a 3e3f 0815 d53e
000001d0: a9d1 49be d798 913e 065c eabb ee4e cf3e
000001e0: 1d92 fa3e 2726 b13e 58aa 133e 50de 003e
000001f0: 493f 073f 5845 a13e 96fc f83e 78ec f53e
00000200: 4afd 1b3d 1404 03bd 9c27 313d 2442 d53d
00000210: 6888 363c 9410 dfbd 538f 1cbd 8607 c3bd
00000220: 438f e5bc a03a debc 2dd0 a03b 77a3 0cbe
00000230: 51ae 3c3d 1681 063d 2c5f 823d 26e9 ce3d
00000240: b851 ad3d ca10 073d 10ac febd 662f b63d
00000250: 9ff4 8a3b 84ee 02be 89b1 8a3d 16e1 eabd
00000260: 2a16 253c 63ff ebbd 861e e4bd 5735 e9bd
00000270: 4947 d3bd 0159 eebd 5b85 e1bc 8301 16be
00000280: b96b 6bbd bad1 b6bc 892a 3dbd 36c9 65bd
00000290: fa2b 153c 17d0 5a3d 3f3e ccbd 1d9c 883d
000002a0: 7bd2 b63c 3025 64bc c5bf 86bd 9cc7 8e3b
000002b0: efb6 0c3c df03 c0bd e884 2e3c 2d0f 9b3d
000002c0: 12ae c3bd cc32 973d f3f6 b9bd de9b 183d
000002d0: b458 dd3d 044c 1c3c 3937 673b 56ae cb3d
000002e0: 582b 94bd 32ea 4ebc 4abd 333d eb17 70bd
000002f0: c657 4abd 9224 b83c 6ad9 0bbd e2e1 353b
00000300: d16f 11be 236f 4f3e 4825 493f 09e3 ce3e
00000310: e0fb da3e 2bcb 013f d3b8 11bf efb1 043f
00000320: 8189 af3e b373 053f c98a e43e aae6 553f
00000330: d537 2a3f 406c 5d3e a6b0 193f 32ef 52be
00000340: b236 f23e a1b3 313f f8c6 e53e bf92 e73e
00000350: af1b 973e 6b58 d53e defc 1b3f 63b8 1c3f
00000360: 18ff 433f 4813 233f ca54 d63d b63f e73e
00000370: 8d25 363f b8f3 4f3f 393a 2e3f 10e5 383f
00000380: c9b0 be3e 59ac 4e3e ea3d 143f 5af4 a2be
00000390: 7db9 96bf f6f6 583f bd70 293f 59f0 983e
000003a0: 349a 393f a946 1f3f bd2e 0a3f 452f a13e
000003b0: 4ac6 8a3e d342 313f bfb2 143f 5cee c83e
000003c0: 1f69 a63e 18ba ee3e 1265 513f a82c cf3e
000003d0: 8f42 a3be 2c9d 343e 0018 c63d 1826 e23e
000003e0: c70f 1e3f 7f3c e83e 261b b43d 9c57 993d
000003f0: 43f5 003f cfff 053e 73f6 da3e 7791 0a3f
-0.32511935 0.07087545 0.7572399 0.60652274 0.46163368 0.4764117 -0.52385527 0.5912852
0.34004962 0.34933957 0.27670464 0.79799813 0.4873583 0.23814243 0.41792712 -0.34131157
0.52351016 0.5769521 0.5097423 0.3726344 0.21060713 0.62485564 0.5828406 0.4877266
0.64134234 0.6896232 0.19921581 0.40034178 0.60289407 0.7503237 0.5326456 0.74225557
0.4672832 0.26110148 0.50873643 -0.30638927 -1.0748888 0.7258472 0.52027726 0.40877116
0.5326868 0.5985506 0.58829165 0.26755467 0.31180194 0.6968022 0.61755985 0.5181862
0.35427073 0.3304217 0.77254075 0.42292193 -0.29086426 0.18625718 0.056713216 0.38139203
0.66549224 0.5458874 0.114141144 0.23561276 0.52856797 0.12255162 0.5119628 0.3964277
-0.15927455 0.13639015 0.68599397 0.48854238 0.5541839 0.561611 -0.40629193 0.62479067
0.117427364 0.32719558 0.41297704 0.6981432 0.66130847 0.20914811 0.5792002 -0.34972766
0.35288972 0.5795132 0.57672006 0.31441635 0.19986945 0.41545412 0.520448 0.46958542
0.5685371 0.6143393 0.07898388 0.55198526 0.6088424 0.86698496 0.59622926 0.7644454
0.45545834 0.2510758 0.47479382 -0.29846123 -1.1927356 0.85007983 0.63817453 0.2709509
0.5097051 0.36617702 0.68942875 0.18637444 0.36873326 0.6001059 0.6919689 0.45649135
0.34976676 0.3912798 0.74381775 0.41617608 -0.19708885 0.2843692 -0.0071520833 0.40489906
0.489396 0.3459942 0.1442045 0.12584805 0.5283094 0.31498218 0.48630208 0.48031974
0.038083352 -0.03198631 0.043250665 0.10413006 0.01114092 -0.10891834 -0.038222622 -0.09522919
-0.028022414 -0.027127564 0.004907629 -0.13734232 0.04606468 0.03283795 0.06365809 0.10103063
0.08462852 0.032974996 -0.12435162 0.08895759 0.004240587 -0.12786299 0.067721434 -0.11468713
0.010076085 -0.115233205 -0.111386344 -0.11387127 -0.10316331 -0.1163807 -0.02752941 -0.14649014
-0.05747578 -0.022316802 -0.046183143 -0.056100093 0.009104723 0.053421106 -0.0997281 0.06670401
0.022317162 -0.013924882 -0.06579546 0.0043572914 0.008588537 -0.09375738 0.0106518045 0.07571254
-0.09554686 0.073827356 -0.09080305 0.03725802 0.108079344 0.009539608 0.0035280718 0.09945361
-0.0723483 -0.012629079 0.043881692 -0.05861656 -0.049400114 0.022478376 -0.03414289 0.0027753045
-0.14202811 0.20257239 0.7857251 0.4040759 0.4277029 0.50700635 -0.56922644 0.51834005
0.34284595 0.5212967 0.44637135 0.8355509 0.6649144 0.21623325 0.6003517 -0.20599058
0.47307354 0.69414717 0.44878364 0.45229146 0.29513308 0.4166902 0.6093272 0.6121885
0.7656112 0.63701296 0.10465391 0.45165795 0.7115105 0.8123126 0.6805759 0.7222452
0.3724425 0.20182933 0.57906973 -0.3182705 -1.1775357 0.8475183 0.6618765 0.2987087
0.7250092 0.62217194 0.53977567 0.31481376 0.27104408 0.6924259 0.58085245 0.39244354
0.32502076 0.46626353 0.81794846 0.40463758 -0.31886718 0.17638081 0.096725464 0.44169688
0.61742824 0.45358655 0.08794241 0.07487413 0.5037424 0.13085864 0.4276615 0.5412821

layer2.bias f4 [32]
00000000: 0707 b93e bea1 103f d9a3 933d 4933 e03e
00000010: b5dd c33e 95bf c13b 7813 ef3e b6df 4f3d
00000020: 09cc 083f a84b bbbd 3a37 8ebd efa9 153f
00000030: c6dc b1bd 1ef7 b03e 1956 ea3e d07a 24bd
00000040: 0cb7 003f 501f 053f 26db fa3e 2677 e23e
00000050: 2bf5 183f 67b1 0ebe 087e 77bc 3eaf 853d
00000060: 6a8a 8dbd 826f 33bd 632f d83e c9a2 e73e
00000070: 572d 07bd 192a 28bd 97a9 cc3e 7c8d 0d3f
0.36138174 0.564968 0.07208986 0.43789127 0.38255087 0.005912731 0.4669454 0.050750457
0.5343633 -0.0914529 -0.069441274 0.58462423 -0.08684687 0.34563535 0.45768812 -0.040156186
0.5027931 0.52000904 0.48995322 0.44231528 0.59749097 -0.13934861 -0.015105732 0.065275654
-0.06911166 -0.043807514 0.42223653 0.45241383 -0.033002224 -0.041055772 0.39973137 0.55294013

layer3.weight f4 [2, 32]
00000000: f82a 223f 2ffa 213f 25b2 01be 97fa 1d3f
00000010: dca7 1a3f 31fd 15c0 a243 173f 01c5 08be
00000020: 101c 213f 35e8 83bd e435 eabd b35a 173f
00000030: dcf2 dbbc 4c7a 343f 646f 113f 277a c7bd
00000040: e4f3 3d3f baba 133f d10d 143f da56 173f
00000050: 2167 1b3f cfa8 f1bd eaa2 0dbe beea 62be
00000060: c841 a1bd 1ac8 81bd d827 2f3f edb7 143f
00000070: 951d d7bd e980 cfbd 2702 243f 9581 0d3f
00000080: d871 8ebd cb04 0fbe a7a8 343e 94da 203d
00000090: 4e63 2fbc e15f bfbd 834a 793e 75d8 203e
000000a0: a10f a8bd 4e2c 443d 4767 09bd f6ad 21be
000000b0: 4104 2f3d 35af 0bbe c604 423e 81bf 87bd
000000c0: c03a 813e e186 053e d89b 563d 5a51 0fbc
000000d0: e652 e33c f987 023e 4275 e5bd 3373 00bd
000000e0: 6852 39bc af21 07be 903c 68bd 2257 b63d
000000f0: 47ce a03c 0735 1dbe 2ae8 5e3e 255a f8bd
0.63346815 0.63272375 -0.12665613 0.61710495 0.60412383 -2.3435786 0.59087574 -0.13356401
0.62933445 -0.06440774 -0.1143606 0.5912277 -0.026849203 0.7049911 0.56810594 -0.097400956
0.7420027 0.577068 0.5783358 0.591169 0.6070424 -0.11799776 -0.13831678 -0.2215986
-0.07873875 -0.063369945 0.6842017 0.5809315 -0.10503689 -0.101320095 0.64065784 0.5527585
-0.06955308 -0.13966672 0.17642461 0.039270952 -0.010704828 -0.09344459 0.2434483 0.15707572
-0.08206106 0.047893815 -0.03354576 -0.15789017 0.042728666 -0.13641055 0.18947133 -0.06628323
0.25240135 0.13039733 0.052394718 -0.008747423 0.02774949 0.12747182 -0.11204006 -0.031359863
-0.011311151 -0.13196443 -0.056698382 0.08903338 0.01962961 -0.1535226 0.21768251 -0.12126569

layer3.bias f4 [2]
00000000: a497 db3e c46e 9ebc
0.4288913 -0.019339927
